…
Kosuke:~/work/Keras$ python MNIST_CNN/cnn.py 
Using TensorFlow backend.
MNIST_CNN/cnn.py:34: UserWarning: Update your `Conv2D` call to the Keras 2 API: `Conv2D(32, kernel_size=(3, 3), activation="relu", input_shape=(28, 28, 1..., padding="valid")`
  model.add(Conv2D(nb_filters[0], kernel_size=filter_size, activation='relu', border_mode='valid', input_shape=input_shape))
_________________________________________________________________
Layer (type)                 Output Shape              Param #   
=================================================================
conv2d_1 (Conv2D)            (None, 26, 26, 32)        320       
_________________________________________________________________
conv2d_2 (Conv2D)            (None, 24, 24, 64)        18496     
_________________________________________________________________
max_pooling2d_1 (MaxPooling2 (None, 12, 12, 64)        0         
_________________________________________________________________
dropout_1 (Dropout)          (None, 12, 12, 64)        0         
_________________________________________________________________
flatten_1 (Flatten)          (None, 9216)              0         
_________________________________________________________________
dense_1 (Dense)              (None, 128)               1179776   
_________________________________________________________________
dropout_2 (Dropout)          (None, 128)               0         
_________________________________________________________________
dense_2 (Dense)              (None, 10)                1290      
=================================================================
Total params: 1,199,882.0
Trainable params: 1,199,882.0
Non-trainable params: 0.0
_________________________________________________________________
Begin epoch 0
Train on 54000 samples, validate on 6000 samples
Epoch 1/1
W tensorflow/core/platform/cpu_feature_guard.cc:45] The TensorFlow library wasn't compiled to use SSE4.1 instructions, but these are available on your machine and could speed up CPU computations.
…
